…
that will be decoded using the given encoding and error handler.\nOtherwise, returns the result of object.__str__() (if defined)\nor repr(object).\nencoding defaults to sys.getdefaultencoding().\nerrors defaults to 'strict'.\n\n\nNow let’s run it on our handy example sentence.\n\nexample_sentence2 = \"Te odio!\"\n\n\n# calling our new, flexible pipeline\nsimple_pipeline(example_sentence2)\n\n{'label': 'LABEL_1', 'score': 0.5055498480796814}\n\n\n\nsimple_pipeline.model\n\nRobertaForSequenceClassification(\n  (roberta): RobertaModel(\n    (embeddings): RobertaEmbeddings(\n      (word_embeddings): Embedding(64001, 768, padding_idx=1)\n      (position_embeddings): Embedding(130, 768, padding_idx=1)\n      (token_type_embeddings): Embedding(1, 768)\n      (LayerNorm): LayerNorm((768,), eps=1e-05, elementwise_affine=True)\n      (dropout): Dropout(p=0.1, inplace=False)\n    )\n    (encoder): RobertaEncoder(\n      (layer): ModuleList(\n        (0-11): 12 x RobertaLayer(\n          (attention): RobertaAttention(\n            (self): RobertaSelfAttention(\n              (query): Linear(in_features=768, out_features=768, bias=True)\n              (key): Linear(in_features=768, out_features=768, bias=True)\n              (value): Linear(in_features=768, out_features=768, bias=True)\n              (dropout): Dropout(p=0.1, inplace=False)\n            )\n            (output): RobertaSelfOutput(\n              (dense): Linear(in_features=768, out_features=768, bias=True)\n              (LayerNorm): LayerNorm((768,), eps=1e-05, elementwise_affine=True)\n              (dropout): Dropout(p=0.1, inplace=False)\n            )\n          )\n          (intermediate): RobertaIntermediate(\n            (dense): Linear(in_features=768, out_features=3072, bias=True)\n            (intermediate_act_fn): GELUActivation()\n          )\n          (output): RobertaOutput(\n            (dense): Linear(in_features=3072, out_features=768, bias=True)\n            (LayerNorm): LayerNorm((768,), eps=1e-05, elementwise_affine=True)\n            (dropout): Dropout(p=0.1, inplace=False)\n          )\n        )\n      )\n    )\n  )\n  (classifier): RobertaClassificationHead(\n    (dense): Linear(in_features=768, out_features=768, bias=True)\n    (dropout): Dropout(p=0.1, inplace=False)\n    (out_proj): Linear(in_features=768, out_features=3, bias=True)\n  )\n)\n\n\nCongrats! You’ve now built a flexible pipeline for Sentiment Analysis that can leverage most NLP models on the HuggingFace hub.\n\nfrom transformers import AutoTokenizer, AutoModelForSeq2SeqLM\n\nclass TextSummarizationPipeline:\n    def __init__(self, model_name: str):\n        \"\"\"\n        Simple Text Summarization pipeline.\n        \"
…
model_forward).parameters.keys():\n            model_inputs[\"use_cache\"] = False\n        return self.model(**model_inputs)\nFile:      ~/mambaforge/envs/llm-env/lib/python3.11/site-packages/transformers/pipelines/text_classification.py\nType:      method\n\n\nAh, we can see it calls the model of the classifier. This is the distilbert model we saw earlier! Now we can peek under the hood at the actual Transformer LLM.\n\n# the distilbert sentiment analysis model\nclassifier.model\n\nBertForSequenceClassification(\n  (bert): BertModel(\n    (embeddings): BertEmbeddings(\n      (word_embeddings): Embedding(105879, 768, padding_idx=0)\n      (position_embeddings): Embedding(512, 768)\n      (token_type_embeddings): Embedding(2, 768)\n      (LayerNorm): LayerNorm((768,), eps=1e-12, elementwise_affine=True)\n      (dropout): Dropout(p=0.1, inplace=False)\n    )\n    (encoder): BertEncoder(\n      (layer): ModuleList(\n        (0-11): 12 x BertLayer(\n          (attention): BertAttention(\n            (self): BertSelfAttention(\n              (query): Linear(in_features=768, out_features=768, bias=True)\n              (key): Linear(in_features=768, out_features=768, bias=True)\n              (value): Linear(in_features=768, out_features=768, bias=True)\n              (dropout): Dropout(p=0.1, inplace=False)\n            )\n            (output): BertSelfOutput(\n              (dense): Linear(in_features=768, out_features=768, bias=True)\n              (LayerNorm): LayerNorm((768,), eps=1e-12, elementwise_affine=True)\n              (dropout): Dropout(p=0.1, inplace=False)\n            )\n          )\n          (intermediate): BertIntermediate(\n            (dense): Linear(in_features=768, out_features=3072, bias=True)\n            (intermediate_act_fn): GELUActivation()\n          )\n          (output): BertOutput(\n            (dense): Linear(in_features=3072, out_features=768, bias=True)\n            (LayerNorm): LayerNorm((768,), eps=1e-12, elementwise_affine=True)\n            (dropout): Dropout(p=0.1, inplace=False)\n          )\n        )\n      )\n    )\n    (pooler): BertPooler(\n      (dense): Linear(in_features=768, out_features=768, bias=True)\n      (activation): Tanh()\n    )\n  )\n  (dropout): Dropout(p=0.1, inplace=False)\n  (classifier): Linear(in_features=768, out_features=5, bias=True)\n)\n\n\nWe will breakdown the different pieces in this model later on in the course.\nThe important takeaway for now is that this shows the main structure of most Transformer LLM models. The changes are mostly incremental from this foundation.",
    "crumbs": [
      "blog",
      "posts",
      "post1"
    ]
  },
  {
    "objectID": "core.html",
    "href": "core.html",
…
